DeepKoopman_HW7/test_save_model2_epoch4.pt (torch, 28595 bytes, 17 tensors)

weight f8 [11, 7]
000000 3a 97 a2 a1 ee 36 db bf 55 ef 7d 14 fa 23 f0 bf
       -0.4252277925937623 -1.0087834167925014
000010 38 6b 34 66 66 6d e7 bf bf 1e 02 bd ee f5 ec bf
       -0.7321044918238391 -0.9050210658615113
000020 0e f8 0f 1f b8 37 ed 3f 88 42 1e 88 e3 1f b5 3f
       0.9130516630827985 0.08251783440779026
000030 6e 9e 20 53 b0 0a d6 3f fa eb de 2e a8 31 d0 bf
       0.3444023906508623 -0.2530308206293622
000040 20 ca dd 3a 01 66 d2 bf 61 45 9a 05 92 ce 01 c0
       -0.2874758791796541 -2.225864452143171
000050 eb eb fc 20 e0 02 e7 bf 00 69 21 5c 22 3f f2 3f
       -0.7191010135933288 1.140413627514647
000060 0c bf fe cb dd c2 f5 bf ec d5 f4 fa ae 06 ba bf
       -1.3600748032149026 -0.10166448237290354
000070 b3 16 34 59 7a 7d f7 bf ff 75 19 91 20 a0 f2 bf
       -1.468134258700428 -1.1640935581157235
000080 2e f8 e0 9b f8 22 f6 3f 65 e0 fb 99 6f 45 89 3f
       1.3835378731742014 0.012339469801631428
000090 2c bb de 6f a7 cc e7 3f cc bf d4 41 1c 88 e3 3f
       0.7437321839296138 0.6103650365603186
0000a0 eb 32 12 34 f5 06 e1 bf c1 8d 0e 66 5a bc e7 bf
       -0.5320993439687219 -0.7417423241899358
0000b0 74 02 52 23 51 f4 ec 3f 55 b1 a5 a5 30 d5 01 40
       0.9048238458490929 2.229096693152466
0000c0 56 e5 d5 bc b8 0e c8 3f b6 ed 5b 31 41 d4 cc bf
       0.18794926853642363 -0.22522749815094095
0000d0 fe 60 77 7f a7 e0 ef 3f 02 70 30 44 01 ee ac bf
       0.9961736192299495 -0.05650333363902861
0000e0 17 a6 1d 45 58 92 04 40 8c 3e f6 d2 4f c8 ee 3f
       2.571457424132642 0.9619521255826426
0000f0 7e e0 79 7f f3 01 f6 bf b5 36 e4 3b e0 9b b2 bf
       -1.3754763583692973 -0.07269097768968431
000100 70 c9 6c 40 10 cb 60 3f 42 03 22 d1 ff 01 f3 bf
       0.002049953214190818 -1.1879881066563063
000110 a4 6f 30 8f 1d 74 b3 3f 95 b7 76 18 6d 04 f8 3f
       0.0759905314047829 1.5010806041350169
000120 ba c5 b7 8f f7 21 e6 bf ed e4 01 da e6 35 cd bf
       -0.6916463667859525 -0.22820745129482792
000130 2b db 76 19 82 a0 80 3f ea 83 ed 20 4f 5d d5 3f
       0.008118645097835738 0.333820135265397
000140 db a9 5e 1f df 75 ea 3f 4e 57 6a 71 90 43 d2 3f
       0.8268886196795465 0.285373793370458
000150 68 b6 9d 54 d5 d9 a1 3f f1 5e de bc dc 2e ea 3f
       0.034865061358556215 0.8182204903450537
000160 d2 c1 64 48 19 1c d4 bf ab fb 7b 3f 7d 4b ef bf
       -0.31421501226125514 -0.9779649963310154
000170 6b d9 b0 67 68 00 e4 3f a2 fc 85 51 7a de e0 3f
       0.6250497842036514 0.5271579353574405
000180 5e d6 26 a2 05 03 12 c0 f3 78 20 8c c5 d0 e0 bf
       -4.502951177235074 -0.5254848229267551
000190 1a 7f ef 20 35 02 e2 bf 7a 70 e6 46 18 5e f3 3f
       -0.5627694743415959 1.2104723710572487
0001a0 30 9d 17 84 36 3b ed 3f 1b 4e bb 85 6b 37 ea bf
       0.9134781436850172 -0.8192651378580565
0001b0 df c8 85 0e 62 53 cc 3f 34 75 8f 2e af ea f8 3f
       0.22129464825736186 1.557295972706311
0001c0 68 0d a8 bf be 8d f2 bf 88 b9 6c b7 6b eb fb bf
       -1.159605740221048 -1.7449757733371332
0001d0 cf 62 29 b5 3e e7 cb 3f 86 eb 10 26 34 d9 e1 3f
       0.2179945358828008 0.5577641242483515
0001e0 ee fd 5e 64 b6 d3 e8 bf e9 a2 77 23 0a 08 e0 3f
       -0.775843807255965 0.5009813969346314
0001f0 17 5f d6 b1 cc 88 c1 bf 18 b3 ef e0 14 58 01 c0
       -0.1369872921320556 -2.168008572878886
000200 2d e5 4b d1 3d 4b 02 c0 69 61 8c 83 7b c3 0b c0
       -2.286739001396788 -3.4704504277435047
000210 f3 1f 86 c1 3b 0a db bf 42 09 a2 af 69 81 ea 3f
       -0.4224995984918671 0.8282974653559807
000220 32 56 09 b6 04 d9 fc bf 9d 0f f4 60 2f 91 c4 bf
       -1.8029830084609668 -0.16068069681216182
000230 25 25 ab 7b 5b eb f0 bf 73 0f 77 f4 97 86 f4 bf
       -1.0574602919389886 -1.2828597592751663
000240 f8 8a 8b 1a 99 ae e7 bf 18 a6 27 85 2a 53 d8 bf
       -0.7400632399042868 -0.3800760555592162
000250 60 21 df 2c 4f 33 e7 3f 7b bc 87 5c 4b 5f d3 3f
       0.7250133396528717 0.3026913074126651
000260 bc 22 ce 7c 11 52 01 c0
       -2.1650724172980897

bias f8 [11]
000000 74 55 53 bd 23 55 e6 3f 7a ea 89 ec f0 d3 f8 3f
       0.6978930185093035 1.5517434348863888
000010 ba db 91 a8 e8 da ec 3f 6b 7a fe bf 1f 2a f0 bf
       0.901722268331347 -1.0102841853874007
000020 9a 38 b5 13 62 ce e3 bf e5 26 fb 24 df 6f d2 bf
       -0.6189432511253188 -0.28807810412818774
000030 0f 62 7d 13 a7 8a e4 3f 88 fa 06 54 1a 59 eb bf
       0.6419253712329595 -0.8546268120915821
000040 88 ee 52 22 6d 57 e5 3f 56 86 ba d9 8c 45 06 40
       0.6669221563710872 2.783960057263168
000050 da df 5e e0 fa a2 f6 3f
       1.414790035674733

weight f8 [16, 11]
000000 0f a2 4e 8c bb 80 e6 3f 64 b9 eb ef 88 0a fd bf
       0.7032144298910356 -1.815071999731651
000010 be c1 2a a2 4b 7c c4 3f 12 ec e9 d6 84 fa d7 3f
       0.16004319589911903 0.3746654604689762
000020 a3 2e d3 6c fb 05 cd bf a6 07 d0 cf 2d 45 ee 3f
       -0.2267450600978594 0.9459446963157816
000030 a4 a9 a4 94 4c 40 f3 bf 77 55 fc c2 02 81 e1 3f
       -1.203198032987168 0.5469983871759457
000040 27 ef 53 8f 0e c9 a5 bf 20 be b5 eb 13 cd f0 3f
       -0.04254956721885455 1.0500678260249359
000050 80 9e b8 4a d4 24 e4 3f ca cd e5 5c 55 ce f3 3f
       0.6294957599065611 1.2378743771376883
000060 e0 fd d6 8e dc 79 fb bf fb ce 33 5e c3 53 d7 3f
       -1.7172513560943727 0.3644874973244751
000070 45 80 60 56 5a f7 ea 3f f8 d7 12 12 f9 bf de bf
       0.8426944434213587 -0.48046709790230535
000080 35 44 a3 da 14 0a ed bf 2d f5 e3 ff 87 eb d1 3f
       -0.9074806471127262 0.2800006865434906
000090 63 41 d0 95 93 5b b5 3f 28 f5 60 29 c7 04 f0 3f
       0.08342859656864259 1.0011664978367865
0000a0 76 a9 e0 f5 6a 11 d4 bf 27 a5 c8 47 ad 9e fb 3f
       -0.313563099016981 1.7262394718221203
0000b0 f2 c5 d8 3f 3e 4f f4 bf de 12 11 a0 01 12 b4 3f
       -1.2693464750303716 0.0783997550762012
0000c0 ce 80 4e 28 ed 73 e1 3f e9 f8 7d 54 82 43 f2 3f
       0.5454011714209857 1.1414817142936562
0000d0 10 54 a1 f8 c9 90 e3 3f 99 a4 c7 db 7c eb ab bf
       0.6114244323786142 -0.05453100378856241
0000e0 85 f3 cf ff 3f ee ee bf 7f 0e 2f 56 a7 2a 92 bf
       -0.9665832516035243 -0.0177408357956339
0000f0 28 9a a4 89 55 5b ec bf a8 44 96 45 7d 44 e8 3f
       -0.8861491859759711 0.7583605155106357
000100 6d bf 5c 8c 84 46 ee 3f 1d 52 b7 28 93 cb e5 bf
       0.9461081258250325 -0.6811004443393959
000110 1b ea 13 29 72 9b e4 3f fd ad 6f 19 4b 33 be 3f
       0.6439753343868831 0.11797017451288379
000120 0c 45 99 fa d0 36 e7 bf 00 d9 77 d3 18 50 ec bf
       -0.7254414457803775 -0.8847774629819298
000130 77 83 c2 d9 91 0b e0 3f e9 ac a8 08 3a 39 e0 bf
       0.5014123204347091 -0.5069856804961123
000140 87 b6 06 b6 39 d2 d8 3f 99 4c bf 4a ac 7e d0 3f
       0.3878311421966391 0.25773150729691846
000150 5f 66 cd 58 de c6 f4 3f 0b 59 c6 63 51 33 eb 3f
       1.2985518902627502 0.8500143955923546
000160 91 cd 0f 91 33 ac d4 bf f1 08 bf 2f 12 e4 fb 3f
       -0.32301034132179846 1.7431814065062634
000170 65 c6 27 36 cc 07 7e bf b4 36 8d 4f 0a 9e 07 c0
       -0.007331655217500098 -2.9521681036920544
000180 ba 2a ad b1 9e a2 10 c0 1e 6f 14 d4 04 d5 f0 bf
       -4.15880849475314 -1.0520065578811635
000190 6d 17 19 d3 1a 45 f3 bf 27 92 df 60 bf 44 f3 3f
       -1.204371285058609 1.2042840751756871
0001a0 9f d3 e8 5a 77 55 db bf a6 df 76 6c 2e 00 fe bf
       -0.4270914447582132 -1.8750442730797459
0001b0 17 31 25 18 21 5e fd 3f 0b c6 f4 9c aa 02 e3 bf
       1.8354807799506199 -0.5940754952955002
0001c0 11 aa 6e f5 c4 9f de bf 88 fa d2 4b e9 d9 de bf
       -0.47850154846187914 -0.4820502510519096
0001d0 51 7a 11 51 9b 6c f3 3f b7 17 6d 86 a3 7d cd 3f
       1.2140153090218926 0.23039669097687263
0001e0 d8 d0 9f 84 2c 6c e6 3f 94 52 ce 3f 8c f3 f5 bf
       0.7007048216169336 -1.3719599239749742
0001f0 f7 21 79 84 2a a6 c2 3f ce 29 15 f1 a1 e8 f9 bf
       0.1456959864465401 -1.6192950646678699
000200 23 93 99 57 c1 ee 06 40 5c 95 0a 45 e6 76 03 40
       2.8665797084562583 2.4330563920836266
000210 dc 48 8d 47 81 af e2 3f e9 45 7b 20 25 de d0 3f
       0.5839239499566946 0.263558656425714
000220 71 ce 7f 01 a2 6d cd 3f 35 0f 54 23 cd e5 07 c0
       0.22990822861867202 -2.987207675936498
000230 8e e7 31 5e 5c df e1 bf be 62 da 14 6d 6e e6 3f
       -0.5585157241578018 0.7009797484671123
000240 e2 17 ce ad 5f 1d ed bf 83 6c 4f cd 30 9e f0 3f
       -0.9098356623296662 1.0386207599574682
000250 cb 4f 57 61 79 40 c8 3f ea d9 68 91 61 d1 10 c0
       0.18946759465199955 -4.204473754906283
000260 3e 6d f6 7f a4 17 b0 3f dc 24 e3 34 47 68 e3 bf
       0.06286075710379621 -0.6064792664484702
000270 27 ba 63 33 9f 24 e0 3f c0 fc 61 50 af 73 e0 bf
       0.5044704440786675 -0.514121682164749
000280 b8 2c e9 0e 69 0b ea bf f4 cb 0d 87 99 2e de bf
       -0.8138928691127125 -0.4715942210088422
000290 21 44 d0 ec 2b ad ef bf d7 ff 4d 00 22 58 d2 3f
       -0.9898891091598935 0.2866292002654495
0002a0 62 d6 3d 3e 6c 3f e6 bf 58 ea ab c9 50 23 ec 3f
       -0.6952420440345117 0.8793109835526804
0002b0 5d a0 07 36 ec 77 02 c0 93 1c ff 29 38 b1 00 40
       -2.308556005580654 2.0865329056719673
0002c0 f2 98 bb 5d ef 16 fa bf 2e 09 17 ee c4 10 c8 3f
       -1.630599371093521 0.18801175714004031
0002d0 2f b2 59 b4 b3 14 ee bf d8 37 cf 85 26 9a e8 bf
       -0.9400270960300697 -0.768817197176527
0002e0 33 2b 31 78 35 c4 de bf 60 f8 b5 ab 23 6a ce bf
       -0.4807256387472762 -0.2376141155654663
0002f0 31 32 7d a8 54 e3 d1 bf 48 bf e9 95 72 2f c1 3f
       -0.2795001645470477 0.13426048583959926
000300 c1 12 bb ea d8 75 fd bf 84 43 8d a9 23 82 02 c0
       -1.8412713212175478 -2.313544582961585
000310 1a e8 83 61 b6 ad eb 3f d9 0e 4b 8c d0 c7 d0 3f
       0.8649551300616196 0.262195717816423
000320 c6 a9 84 e5 56 5a c5 bf 43 0f e1 27 4c 81 d7 bf
       -0.16681944090789907 -0.36726669210860424
000330 a8 9c 60 c1 28 8d f3 bf 17 ef 8c d3 5f 4b e4 bf
       -1.2219626954845726 -0.6342009670110852
000340 aa 2c 20 a2 c5 a7 e2 3f 0e a5 9b a5 ce 53 ef bf
       0.5829799810902803 -0.978980372861004
000350 bb bd 1a d7 f2 b2 e9 3f b8 de 62 0e 5e f3 ee bf
       0.8030943108805596 -0.9672079354267771
000360 cc 66 c1 c0 15 e5 f2 bf b3 74 1e aa d6 58 d2 bf
       -1.1809289483557448 -0.2866722737615632
000370 77 35 47 0f e9 f6 cc 3f 43 b4 a9 82 77 c8 dc 3f
       0.22628510709766278 0.4497355247502279
000380 9d 79 28 25 8a f2 fa bf f6 78 0c 8a 47 4d ee 3f
       -1.6842137767303946 0.9469335266365124
000390 d0 fe 41 ce d2 5f e7 3f 04 1f ff f9 43 13 d5 3f
       0.7304471996758028 0.32930087484099624
0003a0 88 93 19 bd 27 30 e9 bf c3 46 31 a7 1d 2d ea bf
       -0.7871283238751952 -0.8180073037603609
0003b0 2f b0 94 0b aa 73 d6 bf 24 34 64 1a a4 86 fa 3f
       -0.35080958491267017 1.6578713446535938
0003c0 ee 98 1d 54 06 36 dd 3f bf da e7 54 08 d4 05 40
       0.4564224072877455 2.728531516385686
0003d0 48 dd 2a 2f 70 1e f0 bf 06 8f 7f 58 f2 99 f5 bf
       -1.0074312059858404 -1.3500846344913398
0003e0 10 98 a9 8f 8e 75 f3 3f c0 ae 24 63 17 97 de bf
       1.2162004100623598 -0.4779718845554548
0003f0 86 3f 27 f5 db 90 ba 3f 66 48 86 91 66 b6 c2 3f
       0.10377287612140948 0.14619142633142984
000400 fd 6d 08 55 6e a5 f0 bf 17 49 e5 7b dd 07 d6 bf
       -1.0403884240721475 -0.34423005198654394
000410 47 26 ae 67 0b d1 e8 bf 76 ea a5 bb f0 25 f9 3f
       -0.7755181336407951 1.5717627840046169
000420 1d 8d dd 61 4a 9c d8 bf 63 7d a0 ca 88 8e db 3f
       -0.3845392184941419 0.43057460582527635
000430 da 6b 92 b5 15 ae df 3f 0e 20 2a 10 61 52 e1 bf
       0.4950002930797247 -0.5413060489381694
000440 31 13 ad 5b 5a 26 da 3f 35 f6 08 cf 9d c9 d6 bf
       0.4085908789896165 -0.35605569093954453
000450 e6 59 a9 b4 c5 00 e1 bf 8f 74 56 32 10 44 c0 3f
       -0.5313442734284848 0.12707712610145847
000460 ca 10 e0 6f 97 58 c5 3f 44 4a 32 a3 4e aa e2 3f
       0.16676609957369798 0.5832894504004078
000470 b9 d7 1c d6 bc a5 e3 3f 2a 40 93 6f 0c 6f cf 3f
       0.6139816457641621 0.24557643363959986
000480 72 92 30 86 97 bb c6 3f fe a8 13 34 da cf b4 3f
       0.17759985019906172 0.08129657527357279
000490 21 e7 a0 cb 45 68 e9 bf d3 e1 8b 3e 0c d6 f4 bf
       -0.7939785935516036 -1.3022577708453482
0004a0 4c d1 cd 09 00 43 76 bf f8 e9 60 8a 5b 0e d4 bf
       -0.00543499007186583 -0.3133763171532844
0004b0 3b b3 c5 c6 68 3e e2 3f 4e a7 c3 0b f9 49 f0 bf
       0.5701183206816504 -1.018059774355112
0004c0 46 14 30 ca 81 c5 8a bf 68 c0 2f 06 f1 ac e5 bf
       -0.01307202719000079 -0.6773610230284364
0004d0 98 c3 b5 e3 dc 63 d2 bf 69 ec 31 6c 80 02 c8 3f
       -0.2873451446276305 0.1875763443275418
0004e0 32 47 98 da 2e c8 c6 3f c8 75 a9 d0 26 0f e0 bf
       0.17798410104347223 -0.5018495631626871
0004f0 34 17 69 2e 14 1c e5 bf 7b e0 67 f1 0a 3a a7 bf
       -0.659677591939476 -0.04536470600936667
000500 03 8e 2b e1 91 76 d3 3f 8f f8 e4 95 0e c0 c9 bf
       0.3041119288375002 -0.20117361373008122
000510 5f 1e 76 81 80 c2 f0 3f aa 43 ed 05 7e f5 06 c0
       1.047485833843801 -2.8698692763359377
000520 81 28 53 5a e8 a5 ec 3f eb ed f6 d4 4f 71 d8 bf
       0.8952523960263222 -0.38191600606270865
000530 a6 40 c2 b8 ba 4b 8c 3f e1 f5 b8 42 28 4d e1 bf
       0.013816317332640726 -0.5406686118291725
000540 85 3f 13 6e 4e c9 cc bf c1 0d 6d 83 8e 9d e8 3f
       -0.2248933827854637 0.7692329947389497
000550 87 11 26 74 c0 71 cd 3f 0c 04 a2 b4 f0 0a fa bf
       0.23003392859767421 -1.6276709609958315
000560 fc fc ee 7c 4f 0b e4 3f 16 65 3e e2 a8 0e f0 3f
       0.6263806762798647 1.0035790288587285
000570 c4 46 d3 64 b9 1d fd 3f 59 0b 3e d4 64 91 e3 bf
       1.8197568834770417 -0.6114982743605238

bias f8 [16]
000000 04 1c ca 8a 52 47 de bf 6c 96 58 5b 0f e9 a4 3f
       -0.47310317567502147 0.04084060659469632
000010 4a 63 6b 1d bb 80 db bf 48 8a 34 da 17 50 e7 3f
       -0.42973211167332137 0.7285269986935612
000020 0f 38 6d c9 e2 90 eb 3f d0 be 00 50 0f 4d cc bf
       0.8614362653841016 -0.22110167890922705
000030 24 7d e4 4e 36 d7 c3 bf 4a 8f f5 a6 3a 9c d7 3f
       -0.1550052533357099 0.36891046814547634
000040 ac 84 e3 78 f8 bd e5 3f e0 7d 12 2b 97 41 d6 3f
       0.6794397698505654 0.34775332647583745
000050 8a 33 e8 ed 4a b6 bb bf e4 3c 1a f1 d1 ac f2 bf
       -0.1082503157451368 -1.1671924036089019
000060 37 05 d0 b4 60 ea de 3f ac 74 ce a1 92 ce e0 3f
       0.4830552831409309 0.52521640398813
000070 74 58 aa e1 dd b4 df 3f c0 a1 05 d6 3a 3b ca bf
       0.4954142287982741 -0.20493255090992868

weight f8 [21, 16]
000000 b3 3b 4f ed 24 24 f4 bf ee 10 cf 9b 98 9f e0 bf
       -1.2588242788221862 -0.5194819491521494
000010 ee 44 0c d2 4a 63 c4 3f 36 0a 5e 8b a4 3d fa bf
       0.15928015953298974 -1.6400494998967026
000020 26 d6 ff b4 0a 1f e5 bf 15 7e 7f ac 50 98 f2 3f
       -0.6600392851966645 1.162186311550504
000030 56 74 c1 a7 1b 86 f7 3f c3 21 0b c8 30 af e1 3f
       1.4702412178951554 0.5526355654811187
000040 8a ad f6 d4 44 6e dc 3f a8 ee ae 82 2a 57 e3 bf
       0.44423027798867365 -0.6043903877648136
000050 b8 37 1b 93 20 52 66 3f 43 47 be d5 53 29 ea bf
       0.002724708196956773 -0.817544858424505
000060 45 e1 f6 ce 7c 18 e5 3f 4f c0 7a a5 93 de cb bf
       0.659239200808806 -0.2177300031667095
000070 79 95 ff af 7c 34 ea 3f 23 c2 15 6a 35 83 f0 3f
       0.8189071118801358 1.0320333618111668
000080 92 dd c1 8c cb e6 c3 3f 5a 89 81 3d df 72 f0 bf
       0.15548080799974834 -1.0280449297502714
000090 3c 79 64 90 6c ea e8 3f 69 51 b2 cd f6 fb f5 bf
       0.7786162204900289 -1.3740146670362157
0000a0 68 ca 24 63 45 f4 c3 3f f4 b4 92 cf c5 38 f1 bf
       0.15589206067086825 -1.0763605221102894
0000b0 75 8a ba 10 ee e0 ca 3f 3e c3 98 40 89 54 c8 3f
       0.2099893171008095 0.1900798383153645
0000c0 a8 e4 d2 0c 75 ff b0 bf 5c d9 b5 9f 51 ab dd 3f
       -0.06639796794015018 0.4635814723655096
0000d0 65 4c f3 b3 d0 0c bb 3f ff 6d 2f 2d 83 a0 f0 3f
       0.10566429513282712 1.0391875996637052
0000e0 0f 71 16 44 c9 6d eb bf 8e e5 11 0a f8 da e2 bf
       -0.8571516351544534 -0.5892296024969015
0000f0 78 af 73 5a f7 7e f0 3f aa b2 6a d5 5f 87 e3 bf
       1.0309976132657237 -0.6102751892372755
000100 24 30 9c dd b6 02 e0 3f 5d 73 3f 24 aa f2 be 3f
       0.5003313377687886 0.120890268182348
000110 8d a6 05 42 ed 2b c0 3f fc 17 4c c4 ef c5 d7 3f
       0.12634053920492186 0.3714560906377071
000120 63 48 78 ab 76 51 d3 3f 27 c7 bc 9b 39 fa d9 bf
       0.3018471407423304 -0.405897523963278
000130 79 d8 e4 f4 b2 5b d7 bf bd 41 cd cf 78 0b ed 3f
       -0.3649718658010737 0.90765038095747
000140 04 e4 36 12 f7 e4 d3 bf 5d 75 83 7e a5 04 d6 3f
       -0.3108499219775356 0.3440335975154392
000150 91 23 99 3f 7c 00 d8 3f 9d 4e 18 6f dd a0 e6 3f
       0.375029623134247 0.7071368379424318
000160 cd c3 83 0e fb 33 d7 bf c7 c4 4a d6 da 74 b4 3f
       -0.36254764954997826 0.07990806323757048
000170 ba e8 29 80 74 30 e7 bf 71 cc d0 e4 c3 92 d0 3f
       -0.7246649268338594 0.2589578375365767
000180 c2 b2 10 14 0e 2b e8 bf 81 ea 77 01 57 54 c7 bf
       -0.7552557365321138 -0.1822613484544782
000190 de ff 12 d2 29 08 7b bf 7a 6d 7e fb b6 9b c7 bf
       -0.00659958206341568 -0.1844395378110269
0001a0 35 50 6f 16 bd af 01 c0 0e 4d 1a 0c f7 06 d6 3f
       -2.2108098747940184 0.34417511159809144
0001b0 8e 7f 5c fa f4 69 f4 3f 31 d0 0a 17 17 b1 fc bf
       1.2758683948268046 -1.7932349109733077
0001c0 44 d9 55 d5 5b 0d e7 3f 63 aa e5 13 65 a3 f1 bf
       0.7203807036119447 -1.1023913171035467
0001d0 98 53 f5 a1 29 e9 b1 bf 9f fd 70 b4 d6 e0 e4 bf
       -0.0699640293508551 -0.6524461292500979
0001e0 dc 7c 68 55 21 a9 e6 3f ea 6f ba 80 e4 40 db bf
       0.7081457775238067 -0.42583572932357916
0001f0 23 76 b3 8e c3 f9 ef bf 1b 32 7d 19 69 9c d1 3f
       -0.9992387568597149 0.2751715420643294
000200 31 3a a8 01 30 37 8a 3f 78 52 ea fc c0 21 e0 3f
       0.012800574350902401 0.5041203441383706
000210 9b 5a 88 61 35 ec de 3f ad f3 2d 26 21 81 ea 3f
       0.4831670238940348 0.8282628770535801
000220 fc 80 17 5c 65 23 db bf 69 93 3c 26 40 b1 e3 bf
       -0.4240353965124226 -0.6153870341118878
000230 f8 53 f3 ff fd af e3 bf e1 cd bb f9 11 ed da bf
       -0.6152334212334827 -0.42071961772964356
000240 5c c8 e3 c5 75 41 cb 3f 0c 5c 03 ff bf f0 cf 3f
       0.21293518221461027 0.24953460647404346
000250 a3 eb 16 10 3a 5f e3 3f 42 95 5f 80 9a 1e ba bf
       0.6053743662117664 -0.10202947267642506
000260 57 aa 1e 96 1c dc c1 3f a4 3a e8 9c c0 6e a9 bf
       0.13952977495258054 -0.049673098710731695
000270 d6 77 15 74 15 33 be bf 48 bd a0 86 84 24 c4 3f
       -0.11796697696760758 0.15736443112971643
000280 48 1c 96 78 78 d5 d5 bf 24 69 a6 91 2d 6b f1 bf
       -0.34115421081554986 -1.088666504807926
000290 82 0f 05 86 14 a2 d5 3f 7f 34 94 e6 64 a4 f3 bf
       0.3380175884997173 -1.2276352889050768
0002a0 c9 bd 2f 58 51 ac e0 bf 8b 19 95 fd b3 ca c4 3f
       -0.5210348818199516 0.1624360073275962
0002b0 77 e0 e8 cb ff 4f c0 3f 51 7a de d0 dd 8a d6 3f
       0.12744138199355223 0.3522257365929465
0002c0 5e b2 22 e8 ff 7b b8 bf 26 53 87 da 25 eb d7 3f
       -0.09564208428737106 0.3737272867268068
0002d0 92 4e b0 75 e8 aa d8 bf 4d a3 d8 fd dc 5e d2 bf
       -0.3854313992789936 -0.2870399931876378
0002e0 8a 70 bd a1 1a 4d de bf 1a c7 72 64 43 bc dd bf
       -0.4734560565464184 -0.46461567696961625
0002f0 9b 19 d1 e7 a5 78 f2 3f 19 e0 a0 af 8c 3a e1 3f
       1.1544550948470718 0.538397162460572
000300 95 6d 57 8a dc 7e ca 3f 57 1a 1e a8 e0 02 a8 bf
       0.20699650530773953 -0.04689695408074062
000310 42 dc d7 c2 04 4f c3 bf f3 f7 da af 42 ee c1 bf
       -0.1508489562399707 -0.1400836332958871
000320 00 16 cd 19 d3 38 c5 3f 56 4c 6d 71 fb 9b ab 3f
       0.16579664954967654 0.05392442473989749
000330 c7 42 d4 16 e9 ac 94 3f bf aa fa d3 5c 5e ea 3f
       0.020190851229076736 0.8240188732355235
000340 86 59 20 d9 cb 39 f9 bf a8 b8 db b3 41 48 ef 3f
       -1.5766104203699753 0.9775703919274479
000350 aa 34 47 d4 5d 12 db bf 52 70 8e df 16 a7 da 3f
       -0.42299600343978716 0.41644832450561353
000360 5a e7 b8 50 8c 68 d3 3f 4b 3f b3 10 03 05 59 bf
       0.303256110029556 -0.001527073853868149
000370 f1 0a ed 21 a9 f7 de bf f1 93 88 6c f4 da e1 bf
       -0.4838660079296196 -0.5579778785510127
000380 e0 44 af 66 11 a2 d9 3f 44 b5 8c 5e 98 76 e9 bf
       0.4005168440608724 -0.7957269522354768
000390 4c 99 60 32 67 0f c2 bf 0b c0 0a 74 02 0e b9 bf
       -0.14109506568747532 -0.09787001927429644
0003a0 23 9a 70 35 3b 28 bf bf 10 82 2a d0 17 31 af 3f
       -0.12170763067897687 0.06092142501916353
0003b0 91 31 c1 a9 12 9e df 3f be 90 cf da 5b fa df bf
       0.49402300431827323 -0.49965568893663803
0003c0 66 cf e6 6b 20 42 f9 bf 17 f0 6c 28 0e 69 af 3f
       -1.5786442007929167 0.06134838336444675
0003d0 35 c5 83 43 15 13 ca 3f 1e 4a 56 c5 95 1c f1 3f
       0.20370736881845067 1.0694787701110111
0003e0 77 b9 59 32 4d 70 de bf 26 90 b1 53 89 e0 db 3f
       -0.4756043426231353 0.43557961629108133
0003f0 aa 84 79 45 8b 58 e6 bf 3e 5a 83 93 5c ac b2 bf
       -0.6983085972716669 -0.07294252969163836
000400 21 ac 28 73 77 7c d0 3f 9a 93 7b 90 65 78 bd bf
       0.2575968384359744 -0.11511835839662724
000410 17 5f 53 4c 53 bf e2 3f 0b 44 fa e0 1a d5 e3 bf
       0.5858551493392693 -0.61976379338205
000420 6a 75 4f e5 e5 7c f4 bf 5b 95 21 d4 11 0b d0 3f
       -1.280492683166211 0.2506756373971563
000430 23 f6 2c d4 3c b8 d5 bf 5f 91 22 75 30 9c f0 bf
       -0.3393699714687008 -1.038132150229181
000440 62 47 c9 1c 73 0a 8a bf c2 b6 d1 11 1f 93 ea bf
       -0.012715243640886779 -0.8304591510802413
000450 52 f1 21 47 b8 df da bf bc cb 06 ba 6d 39 c7 bf
       -0.41990477510969015 -0.18144008239104703
000460 50 34 d2 cc 8b 2c e2 bf a5 3f 08 8d 40 99 e6 bf
       -0.5679377556240386 -0.7062075380836076
000470 7c 73 5a 28 df 46 80 3f 7c 80 3a a1 68 88 e5 bf
       0.007947677058206308 -0.6729014538759794
000480 b2 65 bb 1f fe 3a e1 bf 18 8c a6 cb d5 9d de bf
       -0.5384512538686776 -0.4783834923529766
000490 01 fc 28 e9 8d 6a e3 3f c9 ee 7e 98 83 aa a4 3f
       0.6067571214588271 0.04036341892739654
0004a0 cd 05 e8 60 54 89 04 c0 5b 36 25 b6 fd 35 e2 3f
       -2.5670554705436417 0.5690907056356979
0004b0 ef 61 c3 b0 06 56 f1 3f 63 f1 09 6a 58 d3 f9 bf
       1.0835024742901813 -1.6140979902403039
0004c0 35 fe 40 01 76 39 e7 3f 7c d9 e6 f0 8c d7 ea bf
       0.7257642769326994 -0.8388123231041358
0004d0 b6 19 93 06 28 da a8 3f c3 ac 37 e6 9c 6c ec 3f
       0.04853940086609347 0.8882584091601519
0004e0 42 99 c0 c0 06 2b d4 3f d4 96 f2 6d 9f 25 00 c0
       0.3151261217448288 -2.0183704938561764
0004f0 d5 63 7f 1a c4 c2 f9 bf 67 b5 7e e9 98 7e e3 3f
       -1.6100503001273314 0.6092037735412931
000500 6c 20 6e 22 54 ca d5 3f 51 6d a9 bd a1 6b e0 3f
       0.3404741607887505 0.5131386474926477
000510 ed 70 fb 9b 1c 70 a2 3f 9e af da 07 a2 6c d5 bf
       0.03601159481124392 -0.3347554279996475
000520 de d4 90 ab a5 ef f7 bf 41 79 2d 61 bd 9f ed 3f
       -1.496007604769424 0.9257494829178442
000530 d1 e5 3e 6d 1e 20 f5 3f e0 74 b2 8f e3 be e7 3f
       1.320341517201417 0.7420518690666107
000540 db 60 63 1a f2 a0 e3 3f a2 cb 6b 84 11 03 fe bf
       0.6133966937441316 -1.8757491276453284
000550 fb 35 24 ca 87 45 ce 3f b5 df 23 06 c7 25 e4 3f
       0.23649690027416156 0.62961150359387
000560 79 3a d7 66 76 e3 c0 3f ae 63 fd 7e 06 05 df 3f
       0.1319416048194915 0.4846817245611942
000570 3b ed 74 ad dc dc e9 bf d3 78 9f d7 df 0d f2 bf
       -0.8082106960131691 -1.1283873007555953
000580 92 5e 4b a1 e9 17 d0 bf e5 ab a7 5e 6e fd b9 bf
       -0.2514595103398075 -0.1015233021823146
000590 ca e3 ca 10 72 f4 d1 3f 0d 19 f1 6c 22 2c c6 3f
       0.28054477348228757 0.1732218772833182
0005a0 01 8d 00 dc c0 f7 ef bf ce c4 88 15 9d c0 d2 3f
       -0.9989933297078154 0.2930062017722549
0005b0 69 d8 18 bc b0 e5 cd 3f f4 3d 5b 3d ca a2 d7 bf
       0.23357209381510138 -0.36931091300809205
0005c0 ab 50 5e 6c 4c b4 ed 3f 53 8a bd 45 c1 fa d2 bf
       0.9282590977259323 -0.29655486879906795
0005d0 5a 93 33 fb 3e a8 df 3f 2c 24 fa 4e d2 8b e7 3f
       0.49464392215150144 0.7358180563470618
0005e0 1b 39 4b 62 be 1a c7 3f a6 af d4 23 1c 02 f3 bf
       0.18050365256790077 -1.1880151176110103
0005f0 06 a4 ba fb 0e 03 ce 3f 12 58 2b 42 b1 f6 8c bf
       0.2344683388849093 -0.014142403442217986
000600 c7 a4 16 a5 91 9b d7 3f 2b 20 09 cc ac 56 cf 3f
       0.3688701736633217 0.24483261072805482
000610 ab 65 5a 56 6f a8 e4 bf e6 ae cd 93 0b 1c e1 3f
       -0.6455609022697691 0.5346734892641194
000620 dc 4e 3b af fc 12 a5 bf 82 38 f4 8d c7 39 d4 bf
       -0.041160484686455695 -0.3160265814084441
000630 50 a1 34 3e c5 38 a4 bf cc 10 80 d1 20 32 e0 3f
       -0.03949562439294374 0.5061191646386987
000640 da 66 e3 a7 23 b2 c3 3f 40 24 43 8a e5 21 ae 3f
       0.15387387941046066 0.05885236084720491
000650 da a4 fc 32 f6 e4 d4 3f cd a1 e0 1c e4 64 b4 3f
       0.32647471408070106 0.07966447548881846
000660 7e f0 ba e9 bd 47 e4 bf 9b eb 28 8b 25 af dd bf
       -0.6337575497668835 -0.46381510343388194
000670 0f 36 bf 6f 5d 32 e0 bf a6 ce 10 45 04 39 c6 bf
       -0.5061480696255688 -0.17361501095148418
000680 25 56 f9 04 e7 1a ed 3f 60 97 20 52 a6 29 be 3f
       0.9095339867732873 0.11782302384434962
000690 f7 6b 88 d4 7a 9f ab bf ae 57 35 b6 1d db d8 bf
       -0.0539511093558857 -0.3883737830523114
0006a0 f3 e7 af 05 ec d4 e5 3f c5 30 f9 32 b4 14 c2 bf
       0.6822414504124467 -0.1412568329709584
0006b0 14 91 b0 a1 5d a9 02 c0 99 5c 85 45 88 14 f2 3f
       -2.3326981193550953 1.1300127711927301
0006c0 dc e7 a8 41 45 b6 f7 bf 4e 0b 8a 9f 2a 31 e3 3f
       -1.4819996418796029 0.5997517696381267
0006d0 94 a4 d1 74 d4 69 e5 bf cc 8c 16 76 e5 7a eb 3f
       -0.6691686898822291 0.8587519937904289
0006e0 e9 cc ac 08 25 a6 d6 bf 20 fb 44 b1 28 92 c7 3f
       -0.35389066550415166 0.18414791732535551
0006f0 0a fc 31 a3 8c 8a da bf fa 23 56 61 c6 23 e1 3f
       -0.41470638215099653 0.5356170559981586
000700 d2 c2 23 b5 d1 ee d3 3f ac 56 3d fc b7 38 c3 bf
       0.31145136537001605 -0.1501684171332064
000710 e9 67 63 60 e8 17 d8 bf 79 e6 a9 9f 5a 19 c9 bf
       -0.3764592114727053 -0.19608624263837607
000720 d4 0a 96 a0 42 8b d6 bf fe f1 e8 c1 f3 a0 b8 bf
       -0.35224977190243334 -0.09620593532685714
000730 e1 cd 3c 52 18 b6 f8 bf 36 88 74 7b 03 3e d5 bf
       -1.544456788292216 -0.3319100099198552
000740 94 fd 31 c9 b0 b4 e1 bf 9a 76 a0 ff 49 72 a3 3f
       -0.5533069543452478 0.03798133130497412
000750 da aa ae 6b 9a 5a ee bf 53 8f 45 5f ba 37 d0 3f
       -0.9485599616212668 0.2534013681781648
000760 d7 92 c7 b1 53 17 c0 3f 3a c9 3e 4b 30 0a c3 bf
       0.12571188145297782 -0.14874843286595213
000770 9b 9b 6f 68 0d 17 d0 bf d2 9b 7f e3 0a 0b c7 bf
       -0.251407005298853 -0.18002449138950155
000780 ff db 51 78 8f c3 b0 3f bc 42 fb 13 3e 2c e2 3f
       0.06548401534551827 0.5679006948722285
000790 a3 53 90 bc c2 e4 d0 3f e7 61 2c ac a3 8b d0 3f
       0.26396244444304723 0.25852290929608873
0007a0 99 27 e5 1d c4 4b f8 bf f6 cf 14 ed 89 e1 be bf
       -1.5184975784090737 -0.120628948575188
0007b0 3c df 36 f0 b9 1e b9 3f 5e 46 af a4 f4 d6 d1 3f
       0.09812509646041873 0.2787448509453493
0007c0 cb a0 84 a0 33 ad bc 3f ef 5b 02 c3 e8 5f af 3f
       0.11201784771822358 0.06127860432132325
0007d0 b9 eb 49 61 d4 bf d2 3f 69 fb f9 17 67 48 e2 3f
       0.29295835018973154 0.5713382213869923
0007e0 8b 5d b1 4b 28 72 e8 3f 47 bd ab ab 3f 62 c5 3f
       0.7639352301002175 0.1670608127819639
0007f0 de 54 3e 4f 7f db f7 bf 70 89 cf e1 41 e4 cd bf
       -1.49108820871816 -0.2335283615676178

bias f8 [21]
000000 32 04 d0 7d c2 47 e1 bf 45 b5 aa 66 f8 31 df bf
       -0.5400097329403535 -0.4874249460798022
000010 58 73 79 6f 5f 9c d1 bf 42 89 8b 82 dc d4 dc bf
       -0.275169237958655 -0.45049202679196665
000020 ae ea 6d 91 d8 78 cb bf aa 56 60 c0 d6 3a a9 3f
       -0.21462542630236697 0.04927702997535495
000030 0e 46 e2 62 0a 21 da bf 0f c4 5c e2 34 2f dc bf
       -0.4082666364348321 -0.44038126092624535
000040 ad f7 c1 74 35 4e d1 bf 3b 2e 93 66 cf 88 d7 bf
       -0.27039848711126063 -0.3677252294262165
000050 67 f8 05 6d ea 86 c9 bf 00 ea 10 b9 2b cd c1 bf
       -0.19942980121044515 -0.13907381569318034
000060 e2 6e 8b f6 1e 18 aa bf 32 4c 1d d2 e5 76 df bf
       -0.05096527823999765 -0.4916319419764391
000070 80 99 fb 80 98 5a d0 3f 16 16 92 c6 ba 51 c2 bf
       0.25552952381112704 -0.14311918922264572
000080 ae 7c 9a 9c a3 d1 c4 3f 62 e8 5e 38 ee de 89 3f
       0.16264767786649287 0.01263223752527071
000090 f7 ff a7 4e 5a 1d bc 3f 9e d4 75 22 ed 26 db bf
       0.10982288761442748 -0.4242508732343796
0000a0 2c 62 29 bf 6d d8 dd bf
       -0.46633475940828606

weight f8 [21, 21]
000000 5b 18 a6 a2 7f 49 c8 3f b8 eb 15 5e 5d 94 7c 3f
       0.1897429985221518 0.006977429119951965
000010 df 41 75 2d 2f 75 a3 bf c7 7d 9c 89 92 64 c9 bf
       -0.038003420161320405 -0.19838172644902682
000020 01 7f 1a 2c a7 06 ab bf 8b 49 a0 d9 5a b4 ca bf
       -0.05278513348934944 -0.20862899423861977
000030 f3 0a 0f ca ea 2d a4 3f cd 9e f6 5f d7 39 5f 3f
       0.03941282002008064 0.0019058802862250035
000040 45 d9 a7 76 ba 80 a9 3f e8 28 bd c3 cd b0 ae bf
       0.04981024454530084 -0.05994265570059715
000050 a8 48 a3 b8 c4 d9 b1 bf 53 6e 82 aa a6 91 b5 3f
       -0.06972913272628267 0.0842537084849309
000060 34 11 f1 2a dc 77 aa bf ba a5 2f f5 3c 44 aa bf
       -0.05169570945921223 -0.051301865510889624
000070 1f 6a 57 df 49 f5 7a bf b1 7c 72 d2 b0 5f a4 3f
       -0.006581581653757356 0.03979256218848926
000080 aa a6 e2 a2 80 53 80 3f ad 14 cf 99 c8 b7 a0 bf
       0.007971768351427617 -0.03265215756940996
000090 50 f4 09 c1 63 ff c6 3f ce 06 8b 99 6e a4 9e 3f
       0.17966887403227583 0.029924133416676928
0000a0 c0 d5 fa 79 3c e5 8c bf 8f 1f 13 16 47 50 b8 bf
       -0.014109108421829997 -0.09497494019444573
0000b0 4b d2 32 97 ee ef ce 3f 6c 55 fd b2 e3 d9 d6 3f
       0.24169714339008616 0.3570489166207469
0000c0 26 ed c5 ef 5e 46 d9 3f c7 a5 07 71 c2 1b b7 bf
       0.3949200955900828 -0.09026732692259208
0000d0 fa d2 d7 e3 c3 2f b4 bf 4e 23 4f e0 34 7f c1 bf
       -0.07885383904051571 -0.13669453575701102
0000e0 6e bc b4 8f 06 2b a3 3f 92 c2 ce 9b b7 90 cf bf
       0.03743763450835834 -0.24660391910358165
0000f0 7c ab 7a 54 ba e4 d0 bf 54 ef 67 a1 b7 3b d3 bf
       -0.2639604401580795 -0.300519855139773
000100 ba ff b6 d9 86 e7 d3 3f 24 1b 8f a1 f9 cf cb bf
       0.31100627194609454 -0.21728439701674873
000110 d7 6c 07 93 8f 58 cb bf 77 27 79 3f a5 c0 b4 3f
       -0.21364016226912128 0.08106453704490756
000120 53 b9 bf bd 21 35 c0 bf f9 87 80 e9 4a f2 cb 3f
       -0.12662145390590726 0.2183316841265535
000130 51 93 5a c3 6a e3 af 3f 9c a0 30 af e9 5c c9 bf
       0.06228192934694355 -0.1981479745311433
000140 79 05 a1 07 f8 60 ca 3f f3 3e 97 80 04 60 d5 3f
       0.20608425495633378 0.3339854484338353
000150 22 8a 3a 1a dd 50 bc 3f 7f f6 0e 52 10 54 c4 3f
       0.11060888185833354 0.15881542212257568
000160 e3 ad 85 d3 e4 09 78 3f 9c 0e 5e 2b b5 21 c5 3f
       0.005868810513088604 0.16509117715405786
000170 6f a3 51 57 d2 92 91 bf a3 00 e2 18 89 72 b7 bf
       -0.017161642627260883 -0.09159142358294274
000180 b3 b9 25 67 44 8f be bf 1b 05 dc 85 33 e2 bb 3f
       -0.11937358396764956 0.10892030733159112
000190 55 9a 22 e6 31 33 be 3f f7 6e 49 a2 0d 4a c6 bf
       0.11796867245230065 -0.17413492607271738
0001a0 1c 1e 6f 5b c9 a9 c3 bf 0b 7f 37 78 cc 5b b3 3f
       -0.15361897434762362 0.07561948714237247
0001b0 68 5d 56 5e f3 d4 cd bf 4b 72 73 13 d8 d6 af bf
       -0.23306123834911863 -0.06218600499571333
0001c0 bd 0c 2a 63 78 80 c4 bf 31 fc 07 68 bf 59 ac 3f
       -0.1601706012917016 0.05537222046768198
0001d0 40 42 b3 f5 02 92 95 3f d7 e3 f9 72 90 1c d5 bf
       0.02106480240473929 -0.32986842373025865
0001e0 4c 95 45 2b 61 df 64 bf 66 c4 71 cf c5 a8 d3 3f
       -0.002547921927702623 0.30717606790773855
0001f0 f6 40 db 8f 8e a9 7c 3f e7 3d b0 a2 cc 9a d1 bf
       0.0069976395440820485 -0.27507320296805776
000200 e0 eb 41 c2 93 d7 b5 bf 4c a7 02 96 e5 fe c2 3f
       -0.0853206967603195 0.14840383362507692
000210 b3 30 9c 50 c6 40 bf 3f 64 b3 db 1d 74 9c c9 3f
       0.12208213298817121 0.20008708436889855
000220 1e dd 1f 04 e9 92 d2 3f dd 6a c2 5d 72 a5 c6 3f
       0.29021668818264057 0.17692403390977676
000230 f0 14 d7 34 e9 fb be bf 1b a8 05 59 11 50 c3 bf
       -0.12103135623972938 -0.15088097426206634
000240 2d fa 63 61 38 21 c6 3f 0d ae 65 33 14 34 c7 3f
       0.17288880114934227 0.1812768221819713
000250 2b a3 46 9e 00 2c c0 bf 4e 4d b0 d6 0d 3e c5 3f
       -0.12634284714047203 0.16595623953672106
000260 ad 21 54 ab 12 11 9b 3f 41 7a 23 d2 4f b0 c9 3f
       0.02643231554705643 0.20069310913727814
000270 50 a9 3f 1a 03 37 d0 bf 5d 1f 8d 49 51 02 ae bf
       -0.253357673295473 -0.058611431339669486
000280 2d c4 1d 59 65 86 c4 3f 1e 03 a0 8c 46 75 b9 bf
       0.1603514371049938 -0.09944573338726712
000290 e0 30 c7 7b e1 7f d0 bf cb 84 28 63 b2 84 a7 3f
       -0.25780522430137687 0.04593427143505265
0002a0 6b ad 49 fe c9 98 cb 3f 52 e3 42 4a 48 2e b5 3f
       0.21560025135418512 0.08273746312160071
0002b0 43 ed 32 61 3e 15 cc bf 31 fe 28 6e c4 d4 c9 bf
       -0.21939830537835733 -0.20180564288055927
0002c0 48 97 b9 75 14 dd a1 bf 3b 92 b8 8d 2c 50 cd bf
       -0.03488983094284365 -0.22900921745271482
0002d0 3b ae 43 5d ae 38 ca bf 98 8f 2d c7 9f f6 c1 3f
       -0.20485477022099183 0.14033887124525957
0002e0 22 29 3a 62 83 4e d5 3f b7 8a 80 fa be b9 a4 bf
       0.3329170665025619 -0.04047962959181944
0002f0 96 f9 3c 2d 6f 88 88 bf 96 a5 6b f4 d8 f1 6b bf
       -0.011978977745113178 -0.0034112203023723515
000300 3c a3 1e d5 b0 62 ac bf 7f 4e ee 51 87 0b b5 3f
       -0.05544045068319867 0.08220716238275293
000310 31 f5 e4 a6 a2 07 d0 bf 56 c2 45 d8 67 f6 d0 3f
       -0.2504660253360554 0.2650394069706058
000320 9c 14 79 89 61 58 92 bf b6 77 6f ac 36 65 d2 bf
       -0.017915271773990868 -0.28742758597752116
000330 66 28 8f 30 de 26 c2 3f 70 4e 29 ec 6c 62 bc 3f
       0.1418111550431746 0.1108768536153606
000340 8e 62 e7 a6 72 97 c8 bf fb 63 b9 51 4e e0 d3 3f
       -0.1921218218765443 0.31056554776074535
000350 c2 52 7e 13 d1 2b c2 3f 47 80 39 dd d5 20 ba bf
       0.14196217967823627 -0.10206352854720634
000360 23 6e f6 74 3f fd d4 bf 3f b9 97 c1 94 a7 c6 bf
       -0.32795702383166 -0.17698916867034062
000370 70 8d d7 fd 50 66 db bf 20 71 f9 69 a9 ec d5 bf
       -0.4281198958326149 -0.3425696883112028
000380 d7 b6 87 a9 85 54 d0 3f ab 80 00 f2 a1 4a d4 3f
       0.25515882068326107 0.3170552123356269
000390 0c 4f b5 d9 4b 10 c9 bf 5e 3b 45 d8 0a bd b6 bf
       -0.1958098233250144 -0.08882205753364533
0003a0 b8 5c 11 4b b2 12 b4 3f 75 c3 06 c2 84 1b d4 bf
       0.0784102853079841 -0.31417960117237637
0003b0 6c 3c 8c 37 b4 d9 b2 bf 45 f8 20 e7 1c f4 cc bf
       -0.07363439899585139 -0.2261997345503365
0003c0 80 c8 6a a7 2d 82 da 3f de 52 d8 d5 5e d7 aa bf
       0.41419545506790456 -0.05242439613735937
0003d0 50 fb c4 85 3a 2e d1 bf 8c 2c 3e 22 3b 09 c8 3f
       -0.2684465700476055 0.18778170749678613
0003e0 44 b4 6e fe ce b4 d6 3f 8b 0b 5d 07 32 e7 c4 bf
       0.35478567931096827 -0.16330552444022958
0003f0 11 cd 9e 89 48 a2 92 bf 28 96 b5 7c 43 f1 cf 3f
       -0.01819718685119393 0.24955028142282853
000400 fe 2a f0 5b 32 68 3a bf b3 4d e7 26 52 23 b3 bf
       -0.0004029391238310891 -0.07475770425599286
000410 99 0f 32 a9 d0 80 b3 3f 9e ab d6 66 b5 d8 c2 bf
       0.07618431216002221 -0.14723842164434314
000420 d7 d9 bf 73 92 92 b3 3f dd 7e 57 21 66 ce ae bf
       0.07645526243127364 -0.06016844899181504
000430 af 24 eb 4a b8 31 cb 3f bf 91 93 d3 e5 a8 b2 3f
       0.21245483072406077 0.07288967528763289
000440 25 aa 1e cf eb 1a b9 3f f9 d7 be 75 d5 df b8 bf
       0.09806703383097977 -0.09716543316503125
000450 fa cc 47 1b 21 cf be 3f 49 db fd 26 f9 99 b2 3f
       0.12034804264094481 0.07266194536155725
000460 23 74 2f c5 b6 2d bd bf 21 1b cd 3a 9c 8b 94 bf
       -0.11397878946395727 -0.020063820923748147
000470 67 60 b0 4c 82 fd c6 bf 34 bf 24 41 f4 72 b7 bf
       -0.17961148018435155 -0.09159781065386313
000480 50 ff 59 32 cf 64 86 3f 20 2d 87 c4 3d 25 b7 bf
       0.010934466098887846 -0.09041200683639206
000490 a1 f2 50 52 72 d5 c4 bf c4 bc 36 71 40 49 c4 3f
       -0.16276387233110248 0.1584854653169484
0004a0 30 38 0d 62 9d ca dc bf ee 68 ec 51 cc 17 e2 bf
       -0.44986662459712345 -0.5654050445621388
0004b0 c0 a9 89 fb 9b 10 d4 bf ac 7a 93 18 e3 90 cf 3f
       -0.31351375164254236 0.246609103202862
0004c0 89 2f 76 b2 61 5c a9 3f dd 4f d4 18 3f f9 a3 bf
       0.04953294089781852 -0.0390109746751077
0004d0 25 a5 05 79 85 22 ca 3f a7 cf 0a 6b 39 a9 df 3f
       0.2041785088470444 0.494703630956105
0004e0 d6 7c 08 30 41 e0 d6 3f 60 eb fa 14 53 f4 d3 3f
       0.35743741694200304 0.3117873864063565
0004f0 74 24 89 78 f2 35 e1 bf 6c 4c 09 d7 2f 59 d5 3f
       -0.5378353456700453 0.33356853484764915
000500 fe 11 4a 10 24 0f d2 3f 33 12 a7 d3 74 21 d4 bf
       0.28217412558322497 -0.3145420138282901
000510 97 c3 f8 6c 2e 22 c2 3f 06 b4 b9 36 48 e8 d6 bf
       0.1416681320274875 -0.3579273733546987
000520 73 52 c8 57 d8 af bf bf c5 fb 4c 0d 51 49 ba 3f
       -0.12377693312766684 0.10268122267460374
000530 8f b1 2b 56 0a 52 b5 bf be 28 63 cc 94 6f d9 bf
       -0.0832830868127472 -0.39743537864400114
000540 0c a7 ce f3 2c 1f c1 bf 26 4b 8f 3a 31 83 d4 3f
       -0.1337639036622068 0.3205073425171342
000550 85 b0 74 7a e5 ae c9 3f 7a 45 b9 0f 2c 75 9e 3f
       0.2006499145439912 0.029743851146411406
000560 5f 47 7c 78 a3 2b ba bf ac 79 4a 16 36 1a b7 bf
       -0.10222837153949403 -0.0902437023564519
000570 67 7d 02 2d ad 41 c5 bf 36 6b 21 e1 2b 5c 40 3f
       -0.16606678674450423 0.0004992689375840967
000580 b0 14 2c 2d 6a 89 87 bf d6 fe 8b ab 3e 82 c0 bf
       -0.011492566588922365 -0.12897475601493252
000590 50 dc 61 de 84 01 c1 bf 27 12 3a 45 b5 8a d1 3f
       -0.13285885675915887 0.27409106979783576
0005a0 36 57 dc 96 ac 2d be 3f 31 78 51 a6 a2 56 c4 bf
       0.11788443263170909 -0.15889390107162307
0005b0 5b 38 b6 6b 10 ec bb 3f 15 2c bd c9 4e 03 a5 bf
       0.10907080297167353 -0.04104086125024523
0005c0 36 80 75 1f 02 ee c2 3f 28 ad d0 50 47 b9 b5 bf
       0.14788843666156176 -0.08485837672258312
0005d0 75 29 31 a6 3e 29 b6 3f 5f 07 55 8a f4 8c a5 bf
       0.08656684453413795 -0.04209102810501863
0005e0 2b 4d 11 33 96 43 b3 3f 29 a2 35 ee a8 19 c6 3f
       0.0752500414540022 0.17265807753871457
0005f0 23 b7 9a ea 2c 87 ba bf 3b 66 8d 9c 98 26 c9 bf
       -0.10362511375089105 -0.19649036068112644
000600 30 17 75 40 3f 72 9d bf d0 b5 37 34 7e 90 5a bf
       -0.028756130513350076 -0.0016213638745016141
000610 b6 eb 9d a8 df 56 a4 bf 2c f4 0d 39 6a 29 41 3f
       -0.039725293477168064 0.0005237358728745803
000620 48 2e d5 fd 82 88 a1 3f 55 e6 08 5a c4 19 9e 3f
       0.03424462650818022 0.029395168299947667
000630 0b 9f 8e b4 fb 83 c4 bf 8e 09 9f c6 b0 ba bc bf
       -0.16027780834451053 -0.11222367142821651
000640 1c dc 40 85 fa 6c 63 bf 97 23 0c cd 30 97 91 bf
       -0.0023713009814190344 -0.01717830897817726
000650 2b 72 9e 9c 1c 84 a0 3f 96 91 b1 42 11 54 b5 bf
       0.032257932775994945 -0.08331401708853145
000660 fa 57 3d d3 c7 18 c5 3f 60 18 13 08 82 af c0 bf
       0.1648187428897357 -0.1303560771395409
000670 a0 e5 e2 40 ba 99 61 bf 3f f7 0e ab 4f 8f aa bf
       -0.0021484983218129222 -0.05187462771526307
000680 72 4e cf 4d e9 a7 90 bf d7 55 da b5 c6 ff b4 3f
       -0.016265530943043456 0.08202783527152434
000690 8c 2f a3 f6 98 44 b7 3f a2 e3 5e 27 f8 13 d0 3f
       0.09089046498701076 0.25121883244315246
0006a0 ad 8f 0e 60 6b 63 c5 3f 78 d3 b9 9b 7c 28 bd 3f
       0.16709654035832724 0.11389902879620972
0006b0 c0 ad 2f cd 17 a7 d4 bf d8 ac 58 9f 7d 6a c6 bf
       -0.32269854581565127 -0.17512483864388773
0006c0 fd a9 7f 2d 38 59 81 3f 89 7f 4b 03 8c 51 81 3f
       0.00847095383501983 0.008456319666436023
0006d0 86 ae 15 6c c3 15 c7 bf 7a 3a c7 20 9d 59 c9 bf
       -0.18035166528294527 -0.19804729557514006
0006e0 3a 1b ab 61 d9 60 d4 bf b8 e0 0c 38 9d 0f d5 3f
       -0.31841120279243607 0.3290780112615823
0006f0 8c 03 b3 36 28 5f c6 bf ff 00 ec bd eb 26 bf bf
       -0.17477896376479085 -0.12168763529553316
000700 f7 19 c8 0b fb 94 90 bf 56 17 41 ba b9 a5 b0 3f
       -0.016193316072554222 0.06502877042029573
000710 3b e2 6a c4 a5 11 b1 3f 9e a5 6b 78 97 dd a4 bf
       0.06667552991246677 -0.04075311036087757
000720 ed 9a 4f dd 62 dd 9c 3f 14 28 7d c5 ac 5b c6 3f
       0.028188271291493306 0.17467269557010978
000730 da 32 44 d2 25 79 d2 3f 37 f7 45 6c ab 55 c9 3f
       0.28864427121952263 0.19792692934782405
000740 a6 59 ae 07 ad d6 a3 3f ef ba cc 85 24 dd d4 bf
       0.03874722212565311 -0.32599747721080424
000750 fa 71 8a b7 ad 52 d3 bf a0 59 e0 ed 05 48 ab 3f
       -0.3019213001623765 0.053283868110315824
000760 0b 4d 92 0f 23 19 d5 bf 66 53 60 b2 a3 c8 d1 bf
       -0.3296592380585969 -0.27787105960424296
000770 b7 ae c0 be 01 bc ce 3f 9b 97 f4 5a 5d a1 d3 3f
       0.24011251272292153 0.30672391779295943
000780 e7 3e 8c bc cc 10 ac 3f dc e0 44 2a a9 01 c5 3f
       0.05481567193612396 0.16411318363112215
000790 cb 63 c5 28 8e 4f c9 bf 94 4f bf ca 91 b7 b5 bf
       -0.1977403353764927 -0.08483229827771616
0007a0 f6 72 ae a9 75 63 b6 3f 06 24 72 24 5e 5e cd bf
       0.0874551333676655 -0.22944237498839487
0007b0 7b 0f 21 9c af e7 b7 3f a8 cf 51 12 7d f0 88 bf
       0.09337899743792193 -0.012177445527619415
0007c0 a8 e8 12 e4 3f 19 b7 bf 0b 62 a7 d7 7f 6b b9 3f
       -0.09022902792176757 0.0992965604303963
0007d0 99 f6 a5 a1 9f 88 cd 3f 5b 82 06 14 c1 e5 cf bf
       0.23073192017539126 -0.24919904210857421
0007e0 7e 2f 2d 12 1e 10 e1 bf 9d b0 d2 59 6f 13 79 3f
       -0.5332174639711267 0.006122050251331637
0007f0 c6 36 8b f5 2f 41 d1 3f 42 47 e6 4c 79 4e d7 3f
       0.269603719509956 0.3641646624538347

bias f8 [21]
000000 ee 96 b5 d1 29 0b 82 3f 60 19 18 2e 60 57 aa 3f
       0.00881035491211032 0.051447873713231784
000010 e2 0d dc 54 b7 b2 c1 3f d0 7b a9 06 f4 02 b5 bf
       0.13826648372206224 -0.08207631266257853
000020 f3 d4 c5 45 49 ea 8b 3f 6a 8a 84 0b 89 39 b3 3f
       0.013630459253116877 0.07509666949457885
000030 8f 6c 3d a6 53 e6 77 bf e1 f7 1e c3 6f de b3 bf
       -0.005834891085977691 -0.07761286271758606
000040 06 26 f2 b9 2c ff c0 bf 4f 50 07 85 9b 0b 99 3f
       -0.132787314218419 0.024458341593188767
000050 78 45 41 7c 4e c5 b6 3f 34 3b a2 e5 27 0f 6f bf
       0.08894815953796875 -0.0037914065588390503
000060 ed 46 2e a1 6e ef a1 bf 05 df 94 cd c1 d4 a7 bf
       -0.03502984731234258 -0.04654508242168557
000070 38 1d d4 70 c3 dc a4 bf e7 a1 ca 70 fe 94 b0 bf
       -0.040746791384714987 -0.06477346662234816
000080 dc 3f de 31 1d 57 97 3f 32 cf a9 49 09 fb ab bf
       0.022793251198493056 -0.05464962982378409
000090 35 ef 5c 59 78 b3 ae bf ca 87 58 39 59 cf b4 bf
       -0.05996299830300559 -0.08128888750118715
0000a0 3e 33 8c 1e 61 4a c6 bf
       -0.17414487830719766
